src/model/Tabular/tabnet_model.pth (torch, 283769 bytes, 319 tensors)

group_matrix f4 [20, 20]
00000000: 0000 803f 0000 0000 0000 0000 0000 0000
00000010: 0000 0000 0000 0000 0000 0000 0000 0000
00000020: 0000 0000 0000 0000 0000 0000 0000 0000
00000030: 0000 0000 0000 0000 0000 0000 0000 0000
00000040: 0000 0000 0000 0000 0000 0000 0000 0000
00000050: 0000 0000 0000 803f 0000 0000 0000 0000
00000060: 0000 0000 0000 0000 0000 0000 0000 0000
00000070: 0000 0000 0000 0000 0000 0000 0000 0000
00000080: 0000 0000 0000 0000 0000 0000 0000 0000
00000090: 0000 0000 0000 0000 0000 0000 0000 0000
000000a0: 0000 0000 0000 0000 0000 803f 0000 0000
000000b0: 0000 0000 0000 0000 0000 0000 0000 0000
000000c0: 0000 0000 0000 0000 0000 0000 0000 0000
000000d0: 0000 0000 0000 0000 0000 0000 0000 0000
000000e0: 0000 0000 0000 0000 0000 0000 0000 0000
000000f0: 0000 0000 0000 0000 0000 0000 0000 803f
00000100: 0000 0000 0000 0000 0000 0000 0000 0000
00000110: 0000 0000 0000 0000 0000 0000 0000 0000
00000120: 0000 0000 0000 0000 0000 0000 0000 0000
00000130: 0000 0000 0000 0000 0000 0000 0000 0000
00000140: 0000 0000 0000 0000 0000 0000 0000 0000
00000150: 0000 803f 0000 0000 0000 0000 0000 0000
00000160: 0000 0000 0000 0000 0000 0000 0000 0000
00000170: 0000 0000 0000 0000 0000 0000 0000 0000
00000180: 0000 0000 0000 0000 0000 0000 0000 0000
00000190: 0000 0000 0000 0000 0000 0000 0000 0000
000001a0: 0000 0000 0000 803f 0000 0000 0000 0000
000001b0: 0000 0000 0000 0000 0000 0000 0000 0000
000001c0: 0000 0000 0000 0000 0000 0000 0000 0000
000001d0: 0000 0000 0000 0000 0000 0000 0000 0000
000001e0: 0000 0000 0000 0000 0000 0000 0000 0000
000001f0: 0000 0000 0000 0000 0000 803f 0000 0000
00000200: 0000 0000 0000 0000 0000 0000 0000 0000
00000210: 0000 0000 0000 0000 0000 0000 0000 0000
00000220: 0000 0000 0000 0000 0000 0000 0000 0000
00000230: 0000 0000 0000 0000 0000 0000 0000 0000
00000240: 0000 0000 0000 0000 0000 0000 0000 803f
00000250: 0000 0000 0000 0000 0000 0000 0000 0000
00000260: 0000 0000 0000 0000 0000 0000 0000 0000
00000270: 0000 0000 0000 0000 0000 0000 0000 0000
00000280: 0000 0000 0000 0000 0000 0000 0000 0000
00000290: 0000 0000 0000 0000 0000 0000 0000 0000
000002a0: 0000 803f 0000 0000 0000 0000 0000 0000
000002b0: 0000 0000 0000 0000 0000 0000 0000 0000
000002c0: 0000 0000 0000 0000 0000 0000 0000 0000
000002d0: 0000 0000 0000 0000 0000 0000 0000 0000
000002e0: 0000 0000 0000 0000 0000 0000 0000 0000
000002f0: 0000 0000 0000 803f 0000 0000 0000 0000
00000300: 0000 0000 0000 0000 0000 0000 0000 0000
00000310: 0000 0000 0000 0000 0000 0000 0000 0000
00000320: 0000 0000 0000 0000 0000 0000 0000 0000
00000330: 0000 0000 0000 0000 0000 0000 0000 0000
00000340: 0000 0000 0000 0000 0000 803f 0000 0000
00000350: 0000 0000 0000 0000 0000 0000 0000 0000
00000360: 0000 0000 0000 0000 0000 0000 0000 0000
00000370: 0000 0000 0000 0000 0000 0000 0000 0000
00000380: 0000 0000 0000 0000 0000 0000 0000 0000
00000390: 0000 0000 0000 0000 0000 0000 0000 803f
000003a0: 0000 0000 0000 0000 0000 0000 0000 0000
000003b0: 0000 0000 0000 0000 0000 0000 0000 0000
000003c0: 0000 0000 0000 0000 0000 0000 0000 0000
000003d0: 0000 0000 0000 0000 0000 0000 0000 0000
000003e0: 0000 0000 0000 0000 0000 0000 0000 0000
000003f0: 0000 803f 0000 0000 0000 0000 0000 0000
1.0 0.0 0.0 0.0 0.0 0.0 0.0 0.0
0.0 0.0 0.0 0.0 0.0 0.0 0.0 0.0
0.0 0.0 0.0 0.0 0.0 1.0 0.0 0.0
0.0 0.0 0.0 0.0 0.0 0.0 0.0 0.0
0.0 0.0 0.0 0.0 0.0 0.0 0.0 0.0
0.0 0.0 1.0 0.0 0.0 0.0 0.0 0.0
0.0 0.0 0.0 0.0 0.0 0.0 0.0 0.0
0.0 0.0 0.0 0.0 0.0 0.0 0.0 1.0
0.0 0.0 0.0 0.0 0.0 0.0 0.0 0.0
0.0 0.0 0.0 0.0 0.0 0.0 0.0 0.0
0.0 0.0 0.0 0.0 1.0 0.0 0.0 0.0
0.0 0.0 0.0 0.0 0.0 0.0 0.0 0.0
0.0 0.0 0.0 0.0 0.0 0.0 0.0 0.0
0.0 1.0 0.0 0.0 0.0 0.0 0.0 0.0
0.0 0.0 0.0 0.0 0.0 0.0 0.0 0.0
0.0 0.0 0.0 0.0 0.0 0.0 1.0 0.0
0.0 0.0 0.0 0.0 0.0 0.0 0.0 0.0
0.0 0.0 0.0 0.0 0.0 0.0 0.0 0.0
0.0 0.0 0.0 1.0 0.0 0.0 0.0 0.0
0.0 0.0 0.0 0.0 0.0 0.0 0.0 0.0
0.0 0.0 0.0 0.0 0.0 0.0 0.0 0.0
1.0 0.0 0.0 0.0 0.0 0.0 0.0 0.0
0.0 0.0 0.0 0.0 0.0 0.0 0.0 0.0
0.0 0.0 0.0 0.0 0.0 1.0 0.0 0.0
0.0 0.0 0.0 0.0 0.0 0.0 0.0 0.0
0.0 0.0 0.0 0.0 0.0 0.0 0.0 0.0
0.0 0.0 1.0 0.0 0.0 0.0 0.0 0.0
0.0 0.0 0.0 0.0 0.0 0.0 0.0 0.0
0.0 0.0 0.0 0.0 0.0 0.0 0.0 1.0
0.0 0.0 0.0 0.0 0.0 0.0 0.0 0.0
0.0 0.0 0.0 0.0 0.0 0.0 0.0 0.0
0.0 0.0 0.0 0.0 1.0 0.0 0.0 0.0

weight f4 [20]
00000000: 0000 803f 0000 803f 0000 803f 0000 803f
00000010: 0000 803f 0000 803f 0000 803f 0000 803f
00000020: 0000 803f 0000 803f 0000 803f 0000 803f
00000030: 0000 803f 0000 803f 0000 803f 0000 803f
00000040: 0000 803f 0000 803f 0000 803f 0000 803f
1.0 1.0 1.0 1.0 1.0 1.0 1.0 1.0
1.0 1.0 1.0 1.0 1.0 1.0 1.0 1.0
1.0 1.0 1.0 1.0

bias f4 [20]
00000000: 0000 0000 0000 0000 0000 0000 0000 0000
00000010: 0000 0000 0000 0000 0000 0000 0000 0000
00000020: 0000 0000 0000 0000 0000 0000 0000 0000
00000030: 0000 0000 0000 0000 0000 0000 0000 0000
00000040: 0000 0000 0000 0000 0000 0000 0000 0000
0.0 0.0 0.0 0.0 0.0 0.0 0.0 0.0
0.0 0.0 0.0 0.0 0.0 0.0 0.0 0.0
0.0 0.0 0.0 0.0

running_mean f4 [20]
00000000: 0000 0000 0000 0000 0000 0000 0000 0000
00000010: 0000 0000 0000 0000 0000 0000 0000 0000
00000020: 0000 0000 0000 0000 0000 0000 0000 0000
00000030: 0000 0000 0000 0000 0000 0000 0000 0000
00000040: 0000 0000 0000 0000 0000 0000 0000 0000
0.0 0.0 0.0 0.0 0.0 0.0 0.0 0.0
0.0 0.0 0.0 0.0 0.0 0.0 0.0 0.0
0.0 0.0 0.0 0.0

running_var f4 [20]
00000000: 0000 803f 0000 803f 0000 803f 0000 803f
00000010: 0000 803f 0000 803f 0000 803f 0000 803f
00000020: 0000 803f 0000 803f 0000 803f 0000 803f
00000030: 0000 803f 0000 803f 0000 803f 0000 803f
00000040: 0000 803f 0000 803f 0000 803f 0000 803f
1.0 1.0 1.0 1.0 1.0 1.0 1.0 1.0
1.0 1.0 1.0 1.0 1.0 1.0 1.0 1.0
1.0 1.0 1.0 1.0

weight f4 [20]
00000000: 3ea8 9f3f 6747 683f 8fb8 bc3f 7ad9 683f
00000010: 358c 893f e2db 8c3f 3a6d a63f ac72 443f
00000020: c2d7 403f be45 483f a568 4f3f e972 593f
00000030: 672a 6b3f e9fe 9e3f 7bfb 413f 9637 b33f
00000040: 29f4 023f 5b05 063f 0bcf 7d3f ff50 763f
1.2473218 0.9073395 1.4743823 0.9095684 1.0745913 1.1004603 1.3002083 0.76737475
0.7532922 0.7823142 0.8101905 0.84940964 0.91861576 1.2421542 0.75774354 1.4001338
0.5115381 0.5235192 0.9914405 0.9621734

bias f4 [20]
00000000: c332 6f3e d688 9b3e 66f9 133f 9553 b0be
00000010: ab4a 4b3e 60d7 99be d1d8 db3b a1fd 2d3e
00000020: 0a72 6dbe 2a30 e8bb f7a5 a63e 69bf 47be
00000030: 500f 13bf 9cc7 083f 257d bfbd 9709 41be
00000040: 0807 ca3c b07f f33d 2445 083f c522 92be
0.23359208 0.30377835 0.57802427 -0.34438768 0.19852702 -0.3004713 0.006709196 0.16991283
-0.23188034 -0.0070858197 0.32548496 -0.19506611 -0.5744524 0.5342958 -0.09350041 -0.18851314
0.024661556 0.11889589 0.532305 -0.28542152

running_mean f4 [20]
00000000: 75c3 d43e fe8c 1041 19de d03d 050a 7d3f
00000010: dca3 dc3c 3b6f b03f a8f4 1e3e cffc 013f
00000020: 7e21 fb3e 6573 4f3e f73d 553e 1fa3 813d
00000030: ceb2 c440 9edf 573f e29f 563b 3b5e 2741
00000040: ccc6 eb3f 3845 013d 86b4 bf3d 12d8 e83c
0.41555372 9.034422 0.10198612 0.98843414 0.026933603 1.3783945 0.15523016 0.5077638
0.4904899 0.20258863 0.20824419 0.06329941 6.1468267 0.8432559 0.0032749106 10.4605055
1.8420043 0.031560153 0.09360604 0.028423343

running_var f4 [20]
00000000: 5206 af3f 1820 4942 a12d d03e c098 a53f
00000010: 75d4 bb3e e6e5 9140 8bb0 d23e d0b4 223f
00000020: da2a f83e 919f de3e 1ab2 e93e df7f bc3e
00000030: 1daf 9e41 0a11 143f 5c69 bb3e 072a 4943
00000040: ae61 7140 37ae bb3e a016 c23e 0fa5 bb3e
1.3673804 50.28134 0.40659812 1.2937241 0.3668553 4.559314 0.41150317 0.6355715
0.48470193 0.43481115 0.45643693 0.36816308 19.835505 0.578385 0.3660382 201.16417
3.771587 0.36656353 0.37907887 0.36649367

weight f4 [32, 20]
00000000: bda9 11bf 1b14 083f a897 1c3f 96b7 2cbe
00000010: de53 823e d411 c9bf bff8 f2be 5919 403e
00000020: 4a4d 44bf 7f9c 99be 291f b33e d163 34be
00000030: 0adb 043f 051a ed3c 2995 9c3f fc9a d3be
00000040: 0261 68bf 82d1 233f 4804 6ebe 00ed a33e
00000050: 2bc1 45bf 4e21 3f3f e768 d9bc b8cb cebe
00000060: 13c0 2f3f a30b 233e af57 56be 5231 b83e
00000070: 2561 d83e 05d4 f83e 3ab8 f43e 88f7 90bd
00000080: b017 923c 1a93 8a3e bbcd b0be 9463 713f
00000090: c4a2 013f bc31 27bf 5aaf d8be 7231 b0be
000000a0: abcd c43d 40e2 9d3c e97e 12bf d8a7 703e
000000b0: b667 f3be 431d 66bf d40f bebe bd16 a1bd
000000c0: 7efa 3fbf 34c5 90bf c316 e03e 0f54 14bf
000000d0: 804a 8ebf dc6c 6ebf 455a 893f 2150 4fbf
000000e0: 64a1 12bf 1da5 8ebe 7652 78bf 6e4a 313e
000000f0: fa30 1bbf 2af1 f6be 1008 c73e d81c 23bf
00000100: 4a79 a3bb 8ff0 b23e 7835 6c3f 62a6 1bbf
00000110: a413 b33e 5ae6 54bf e877 5bbf 90f2 c6be
00000120: 51dd bdbe b477 a93f af93 1a3d c939 1cbf
00000130: e289 ff3d e941 3a3e fe2d 353d d95e a2bf
00000140: 71e2 77be 0975 273e d466 fd3e b2bb d4bd
00000150: d78b 12bf 3aef 8cbf e284 4b3d df62 a33f
00000160: 9cac 883f abb5 b4bf 127b 4f3f 2844 293f
00000170: d943 8ebd f1f5 093f dcc6 9a3c 4b03 843e
00000180: 3376 fb3d 48ea 403f 571e b33f 571b 1d3f
00000190: bdfa b1bf 124e 3dbf 060e 423e 82bf 9fbd
000001a0: 9bbc 4d3e 506c c7bf a067 76bc 7f5c 623d
000001b0: d3de c0be 8995 09bf 0b7a 363f d2fc 003f
000001c0: 1766 71be 2850 863f 76d9 b4bf 07e6 fcbe
000001d0: fe20 22bf 84df 633f 7341 b93e 4492 063f
000001e0: 8077 fdbe 21f7 a8be 2b60 f23d 95cd 0e3f
000001f0: fceb cebe caaa 293b e00c 1fbf ac61 9c3e
00000200: 0378 5a3e 755a f53e 29eb 843f 7014 43bb
00000210: 9d5f 0f3f c53d 2bbf 59f7 553f 355c d2be
00000220: 8dd5 b33e 0a76 76bd bd6c e3be 305f c4be
00000230: a3d6 013f 3c62 483e 4b83 94bf dca0 11bf
00000240: 1fed 5bbf cc0d debe d9a8 553f 36d4 f53e
00000250: 74d0 16bf 3379 9bbc 3c77 223f dd9a 003e
00000260: ddc9 ccbf e710 193e e1ee e7bd 3101 85bf
00000270: ae2c 193e 46c0 d9bd 8a55 fcbe eaa3 91bf
00000280: f6c1 d1bc 88b7 77bf 4a1c 39bf 3cf7 8e3d
00000290: 5a7a f3be c396 1a3e 19f4 8bbf d4a6 90bd
000002a0: ed5b 803f c234 e03c 5274 d83e 3df5 103f
000002b0: bfae d6be 8ecf 6cbf b06f 81be 88fa c53f
000002c0: 0b50 aebf e1d8 a73e 1d81 a83e be84 c4be
000002d0: 46e4 34bf 999e 7bbf 6529 df3d 5916 06bf
000002e0: 4a7d 83bd abe6 c23e 18fb 82bf ce03 d0be
000002f0: 9cf3 013f 9739 313e da9f c5bd c03f 593f
00000300: f707 473e fb1d 34bf 358a 653e 26b4 7abf
00000310: 5f6d 1b3f 0f65 6e3e e6fd e03e d613 23bf
00000320: 67e6 2dbf ed20 413d 3894 2ebf b29e 71bf
00000330: 328f 6ebe 9ab4 933f 7234 e5bc 5058 c43e
00000340: 6133 9c3f 9043 46be 5194 c4bd 4f25 84bf
00000350: c6db 32bf 13e8 6d3e 42b4 963f 654b fa3d
00000360: e3df 963f 1abb 9c3d 1172 c13e bb44 2b3f
00000370: 87cf bf3f 15f3 7bbc e302 59be e107 823e
00000380: 8abf c7bf 887e 243e 1164 bf3f 1501 563e
00000390: fdd4 64be c235 19be 569a c1bf 3140 cdbe
000003a0: 0213 89be 26bd bd3e 8864 e73e 793a a0be
000003b0: 0bd0 21bf 0999 cc3d 882c 73be 1da7 70bf
000003c0: 98df c43e fd33 b4bf 3510 08bf e0b1 503f
000003d0: d41f b0bf fa6a a33e 6b51 fc3e 0f0b 14be
000003e0: f4fc 143f d441 b43f 05ad 233f 09db f0be
000003f0: 7616 a0be ec1c 1b3e 6f39 3f3f e7c8 c23e
-0.56899625 0.5315568 0.6116891 -0.16866907 0.2545461 -1.5708566 -0.47455403 0.1875967
-0.76680434 -0.3000221 0.3498471 -0.17616202 0.5189673 0.028943071 1.223302 -0.4132918
-0.9077302 0.6399156 -0.2324382 0.32016754 -0.77247876 0.74660194 -0.02653928 -0.403898
0.68652457 0.15922408 -0.20931886 0.35975128 0.42261615 0.48599258 0.47796804 -0.07078463
0.01783356 0.27065355 -0.3453196 0.9429257 0.50638986 -0.65310264 -0.42321283 -0.34412724
0.096095406 0.019272923 -0.572249 0.23501527 -0.47540063 -0.898884 -0.3712145 -0.07865665
-0.74991596 -1.1310182 0.43767366 -0.57940763 -1.1116486 -0.93134856 1.0730673 -0.8098164
-0.5727751 -0.27860346 -0.97000825 0.17313549 -0.6062161 -0.4823087 0.3887334 -0.6371589
-0.004988824 0.34949157 0.92269087 -0.60800755 0.34975922 -0.8316399 -0.8572984 -0.38856936
-0.37082914 1.3239655 0.0377385 -0.61025673 0.12477471 0.18189205 0.044233315 -1.2685195
-0.24207474 0.16353239 0.49492514 -0.103873625 -0.5724463 -1.1010506 0.049687274 1.2764548
1.0677676 -1.4117941 0.81047165 0.66119623 -0.06946535 0.538909 0.018893652 0.25783762
0.12278404 0.75357485 1.3993634 0.6136984 -1.3904644 -0.7394725 0.18950662 -0.07800199
0.20091479 -1.5579929 -0.015039355 0.055263992 -0.3767 -0.537438 0.7127997 0.50385773
-0.235741 1.0493212 -1.4128864 -0.49394247 -0.6333159 0.8901293 0.36182746 0.52566934
-0.49505234 -0.33001044 0.11834749 0.55782443 -0.40414417 0.0025889152 -0.6212902 0.30543268
0.21334843 0.47920576 1.0384265 -0.002976682 0.5600527 -0.6689113 0.8358055 -0.41085973
0.35123864 -0.060171165 -0.44418898 -0.38353872 0.50718135 0.19568723 -1.1602567 -0.56886077
-0.85908693 -0.433699 0.83460766 0.48013467 -0.58911824 -0.01897869 0.6346319 0.12559076
-1.5999104 0.14947854 -0.113248594 -1.0390989 0.1495845 -0.106323764 -0.4928401 -1.1378148
-0.025605183 -0.9676442 -0.7230879 0.0698075 -0.47554284 0.15096574 -1.0933868 -0.0706307
1.0028054 0.027368907 0.42276245 0.56624204 -0.41930196 -0.92504203 -0.25280523 1.5467081
-1.3618177 0.32782653 0.32911006 -0.38382524 -0.7066082 -0.98288876 0.10896567 -0.5237785
-0.06420381 0.3806661 -1.0232878 -0.40627903 0.50762343 0.17307125 -0.0964963 0.848629
0.19436632 -0.70358247 0.22416003 -0.97931135 0.6071376 0.23280738 0.4394371 -0.6370214
-0.6792969 0.04715054 -0.68194914 -0.94382775 -0.23296812 1.153949 -0.02797911 0.38348627
1.220318 -0.1936171 -0.095986016 -1.0323886 -0.698666 0.2323306 1.177376 0.122214116
1.1787075 0.07652874 0.37782338 0.6690175 1.4985207 -0.0153777795 -0.21192507 0.25396636
-1.5605328 0.16063893 1.4952413 0.2089885 -0.22346874 -0.14961913 -1.5125225 -0.40088037
-0.26772314 0.3705837 0.45193887 -0.3129461 -0.63208073 0.09990127 -0.23747456 -0.94004995
0.38451838 -1.4078366 -0.5314973 0.81521416 -1.3759713 0.31917554 0.49280867 -0.14457344
0.58198476 1.4082589 0.6393588 -0.4704211 -0.31267136 0.15147752 0.7469701 0.380439

weight f4 [32, 16]
00000000: 0f20 23bf f13b 13bf 0bcf 2a3f b7d8 9ebe
00000010: 34da 023f 9300 d33e bb2e 5bbe 9b4b fdbb
00000020: 5c5c 783f 0713 f03f e5f9 203f f1fb d5bf
00000030: fff9 31bf a184 81bf bb89 80be e7df b53f
00000040: 055d 1a3e d1a0 0fbf d66a 3bbf 8855 983f
00000050: db0b 963e d340 213e f4a0 56be aaf0 28bf
00000060: 294c 133e 75a1 bcbe c4eb 073f 4d66 4bbf
00000070: b8ab 87bf 9ffb 033f 8d14 07be a0f9 6a3f
00000080: 4dde 7c3f ba7e d3bd 1050 8a3e 1ca6 923f
00000090: 0132 9fbf cad7 923f a5db 4cbf 3a50 0b3f
000000a0: 6bc8 4fbe c110 71bf 82a5 233f fae2 943e
000000b0: f010 ed3e f224 cb3e 83fb 49bf fa85 63be
000000c0: a9f8 603e f22e f8bc f0e9 d0be 8501 0a3e
000000d0: 4db9 0c3f 3c90 afba cc45 8e3f 8930 653f
000000e0: 6a59 88be 8664 303e 17f4 be3f eef1 203e
000000f0: f2fd f0be 6da8 0d3f 7d37 b33e d132 b4bf
00000100: 1740 adbe 57ae 433f 4863 f43e 3b21 ab3f
00000110: 80ed a9bf 4357 eebd 0555 0d3f 6bb7 0840
00000120: 9d7c fbbe dca9 7d3f f119 3fbf 2842 ab3f
00000130: 72f8 f63c 852e 443f 8fdf a5bc a4b0 90bf
00000140: f9f1 70bf 8efb 10bf 6d7f 04bf 606c 8ebe
00000150: b1fe c1be 66fc ab3f ac16 913f c9a8 823e
00000160: 9c2a 7d3f a5f0 3dbf 03c1 bf3e bfe0 5ebf
00000170: 257c 1bbf c880 643f 2aad 9ebf 685b c43f
00000180: 21bb 0a3f 329c b5be 8e03 0d3f fc82 84bf
00000190: 738f 21bf 59c7 84bf 8e1f 03be 381a fcbe
000001a0: 72ea e23e d18f 61bd 26d7 15bf b2be 4abf
000001b0: 842e c7bf ae20 61bf 8ee0 543b be74 dd3f
000001c0: fd3c 0e3f 0407 3bbf b1ee 583f 4656 5fbe
000001d0: aea0 9d3f 7a9c 01bf 3b7d c3be 5a4c 16be
000001e0: d581 823d 0f87 6fbe ad1b 473e 68c2 3dbe
000001f0: aecd 1ebf fc89 29be a694 b3bf 7261 84bf
00000200: 6a87 ba3e 2152 273f 4ca3 11be 641b 243f
00000210: 95d0 4ebf 5be4 a83f 9db5 f4be 2be5 2abf
00000220: 92ee 143f 3268 33bf c9f0 9b3f ea44 96bf
00000230: 2fa4 053f cbed 583f faf3 f83e beea a2bc
00000240: d527 923f a9c9 1abe ff1a 753e c955 a53f
00000250: c4db b43e eeb6 9f3e 1d7d f23d 595c 6bbe
00000260: 7d04 33bf 0e38 373e b332 02be db59 c73d
00000270: 49b8 fc3e ef53 06bf 18b5 9d3e 372e 8ebf
00000280: b356 11bf 0029 35bf c841 f93d 2da8 9fbf
00000290: 4aab 71be 566b 483f a6a5 16bf 56a3 ce3f
000002a0: d70c 2ebe b00d a1be 2b5b 523f 7846 f93e
000002b0: f976 cebe 742b 15be a36a 723f 3a8a b7bf
000002c0: f085 2ebf 36b6 17bf 21cc 8c3e dab3 e13f
000002d0: b9bb cabf b8e8 e3be 0b1d 883c e32f 03be
000002e0: f0a5 cf3e 6c29 99bf 58c0 efbd c5fe 41bf
000002f0: a5dc 81be 2a88 a3bf ca10 513f 0ae6 6abf
00000300: 784f 7d3e bd60 2a3e e8ad 853e 9a77 00bf
00000310: bd80 bbbd 0ee7 923e 869a d5bf 7735 f2bf
00000320: 85e3 83bf a92d 4c3f 2512 c2bd 23b1 863f
00000330: ccc9 d03c 16b8 15bf def2 0d3f 0b0a aa3e
00000340: b99f 94be 6508 333f da58 80bf 12a7 a4be
00000350: 897e 0d3f 7fde c8be d293 743f 0c22 3cbf
00000360: cd00 26bf 8e62 0b40 814f 403f de6f c5be
00000370: 9091 dc3e 7bd2 8fbe 1b1c 983d 55b5 263f
00000380: b00a 3dbf 1e73 e73e 2eb9 823e 5f86 f63e
00000390: 1690 623f 845f f4be cc0f 493e 7f36 923d
000003a0: f725 26be 1ace 633f 8fef 04bf 6ff6 443d
000003b0: 3e39 75bf a5ed a0bf 1703 0240 7b22 133f
000003c0: 7d74 cd3e b42f 28bd 8788 2b3f 0e65 343f
000003d0: 4794 423f 83e0 4ebf 82e9 9d3e ab4b ab3e
000003e0: ca33 90be 1c37 b73f e577 d7bd fe36 113f
000003f0: 0d07 2f3f e1c4 5f3f 4b0f 31bf a8c4 16bf
-0.6372079 -0.5751334 0.6672217 -0.31024715 0.511142 0.41211376 -0.21404545 -0.00772996
0.9701593 1.8755807 0.6288131 -1.6717511 -0.6952209 -1.01186 -0.2510508 1.4208955
0.15074547 -0.5610476 -0.73209894 1.1901102 0.2930592 0.15747385 -0.20959836 -0.65992224
0.14384522 -0.36841932 0.53094125 -0.79452974 -1.0599279 0.5155582 -0.13191433 0.9178715
0.98776704 -0.103269055 0.27014208 1.1456943 -1.2437135 1.1472104 -0.8002265 0.5441929
-0.20291297 -0.9416619 0.6392442 0.2907942 0.46301985 0.39676625 -0.788994 -0.22219077
0.21969856 -0.030295823 -0.4080348 0.13477142 0.54970247 -0.0013394426 1.111505 0.89527184
-0.26630718 0.17225847 1.491824 0.15717289 -0.47068745 0.5533512 0.35003272 -1.4078008
-0.3383796 0.76437896 0.47731996 1.3369516 -1.3275604 -0.116377376 0.55207855 2.136195
-0.4911851 0.9908731 -0.7464896 1.3379564 0.030147765 0.76633483 -0.020248203 -1.1303906
-0.9411922 -0.5663384 -0.51756936 -0.2781706 -0.37889627 1.3436401 1.1335044 0.25519398
0.9889314 -0.7419532 0.37451944 -0.87061685 -0.60736305 0.89259005 -1.2396595 1.5340395
0.54191786 -0.3547073 0.5508355 -1.0352473 -0.6310951 -1.0373336 -0.12805006 -0.49238753
0.44319493 -0.055068795 -0.58531415 -0.7919723 -1.556107 -0.8794049 0.0032482478 1.7301252
0.5556181 -0.7305758 0.84739214 -0.21810254 1.231466 -0.5062939 -0.3818148 -0.14677563
0.0637242 -0.23391365 0.19444151 -0.18531191 -0.6203259 -0.16556543 -1.4029739 -1.0342238
0.36431438 0.65359694 -0.14222449 0.64104295 -0.8078702 1.3194689 -0.4779481 -0.6675593
0.5817653 -0.70080864 1.2182857 -1.1739781 0.5220365 0.84737843 0.4862364 -0.019887324
1.1418406 -0.1511599 0.2393608 1.2916805 0.35323918 0.31194252 0.1184027 -0.22984447
-0.69928724 0.17892477 -0.12714653 0.097339354 0.49359348 -0.5247182 0.30802226 -1.1107854
-0.5677292 -0.70765686 0.1217075 -1.2473198 -0.23600498 0.7828878 -0.5884651 1.6143596
-0.16997086 -0.31455755 0.8217036 0.48686576 -0.40325144 -0.14567357 0.94693965 -1.4339058
-0.6817312 -0.59262407 0.27499488 1.7633011 -1.5838538 -0.44513488 0.016615411 -0.12811236
0.40556288 -1.1965766 -0.117066085 -0.7577937 -0.2536365 -1.2775929 0.81666243 -0.9175726
0.24737346 0.16638465 0.26109242 -0.501825 -0.09155414 0.28691906 -1.6687782 -1.8922566
-1.0303808 0.7975717 -0.09476117 1.0522808 0.02548685 -0.5848402 0.5544871 0.33210787
-0.2902811 0.69934684 -1.0027115 -0.32158715 0.552712 -0.3923225 0.95538056 -0.7348945
-0.6484497 2.1778903 0.75121313 -0.3856191 0.43079805 -0.2809027 0.07427236 0.6512044
-0.7384443 0.45205015 0.25531906 0.48149392 0.8850111 -0.47729123 0.19634932 0.071393006
-0.1622542 0.8898636 -0.5192804 0.04808658 -0.9579047 -1.2572523 2.0314386 0.5747449
0.40127936 -0.04106112 0.670052 0.704667 0.76007503 -0.8081133 0.30842215 0.33456168
-0.28164512 1.4313693 -0.10520915 0.56724536 0.68370134 0.8740979 -0.6916396 -0.58893824

weight f4 [32]
00000000: c15e 6d3f 495d 963f 9eea 783f 9eed 533f
00000010: f790 793f 20f4 803f d08f 343f aa9f a43f
00000020: 57a1 623f 1789 ac3f 1c51 6f3f 88b7 a03f
00000030: 7b39 4f3f 5c64 5c3f 4c7e a13f fdd3 6a3f
00000040: 202d 823f c2c6 9b3f 0a42 893f 89fe 573f
00000050: 4883 9c3f 0b1e 683f a473 463f 3a44 8c3f
00000060: a2b7 843f c33e 8c3f cb1a 5b3f 589e 9a3f
00000070: 8df7 843f f0ea 893f 7704 8c3f 0f1d 663f
0.9272271 1.1747218 0.97233 0.8278445 0.97486824 1.0074501 0.7053194 1.2861226
0.88527435 1.3479337 0.9348314 1.2556009 0.80947083 0.86090636 1.2616668 0.9172972
1.0170021 1.2170031 1.0723279 0.84372765 1.2227564 0.9067084 0.77520204 1.0958321
1.036854 1.0956653 0.8558776 1.2079573 1.0388047 1.0774822 1.0938863 0.8988809

bias f4 [32]
00000000: d45b 6bbd c8bd 8b3e 3e81 74bb c5f4 9fbc
00000010: 5f59 ea3d 02eb fabd 9f41 303d 9f2c cbbe
00000020: 6470 a93e 9450 bcbc e914 383e bd5f d43e
00000030: 637f 763c 317a 89be a5d2 4bbe 3838 5cbe
00000040: 62f6 25be dc3a e33d dfd4 0abd e02f dabd
00000050: eb57 23be c85d dc3d e267 81be 349e ad3e
00000060: fa98 71be 128b ac3e ec5a 69bd b47e 0d3e
00000070: 94b5 44be ebbb 36be 2716 813e d00c b13d
-0.05746062 0.2729323 -0.003730848 -0.019525895 0.114428274 -0.122518554 0.04303133 -0.3968248
0.3309356 -0.022987641 0.17976727 0.41479293 0.01504502 -0.26851037 -0.19904573 -0.21505821
-0.16207269 0.11095211 -0.033894416 -0.10653663 -0.15951507 0.10760075 -0.2527457 0.33909762
-0.23593512 0.33699852 -0.056971475 0.13817865 -0.19209892 -0.17845123 0.25212213 0.08645022

running_mean f4 [32]
00000000: d8ef 4a3f d148 443e f633 a1be b92e 843f
00000010: 2863 b33f 1482 9f3f e5b1 65bf a743 9b3f
00000020: ce89 adbf 3d50 2cbf ae7f 72be 8e87 013d
00000030: 66ec aabf 10b4 17bf e335 4f3e 77d5 9ebf
00000040: c017 98bf 068d c6be 3834 7fbf 7c3f a3bf
00000050: 3411 153f 66cc fabf d33c 1640 aa83 8b3e
00000060: fe28 073f dbad 053e ffdc a2bf 8723 90bf
00000070: 6d33 b7be 262c 543f ee99 1c3f 1ba9 24bf
0.7927222 0.19168402 -0.31484956 1.0326759 1.4014635 1.2461572 -0.8972457 1.2130021
-1.355768 -0.67309934 -0.23681518 0.031623416 -1.3353393 -0.5925913 0.202354 -1.2408894
-1.1882248 -0.38779467 -0.99689054 -1.2753749 0.58229375 -1.9593627 2.3474624 0.2724889
0.52796924 0.13054602 -1.2723693 -1.1260842 -0.35781422 0.82879865 0.6117238 -0.64320534

running_var f4 [32]
00000000: 8750 3441 6f44 7a40 ad52 a041 6e08 0941
00000010: 684d b840 f550 3041 caeb a740 f410 5041
00000020: bb83 0841 198a 2741 d42f d140 8d0f 8741
00000030: 3b21 2e41 71c5 e840 4433 2d41 9b71 3f41
00000040: 50f5 e240 515c 8641 0d12 2d41 9d5a 1f41
00000050: 928f 4a41 6f8b 8141 41f0 a141 d626 9641
00000060: 8bb3 af41 444a a240 4ab0 a640 75ed 8441
00000070: cf4e fb40 ffc8 4d41 1801 9641 2fe3 0241
11.26966 3.9104269 20.040369 8.564558 5.759449 11.019765 5.247533 13.004139
8.532161 10.471215 6.5370884 16.882593 10.883113 7.2741017 10.825016 11.965236
7.0924454 16.795076 10.816907 9.959622 12.660051 16.193083 20.242311 18.768963
21.962667 5.0715656 5.2090197 16.615946 7.85337 12.861571 18.750534 8.180465

weight f4 [32]
00000000: 0580 753f 5f50 953f d0b8 4d3f 0cbb 923f
00000010: 200f 233f e317 683f 2818 643f 23b4 663f
00000020: 2e7b 4b3f 42b5 5e3f 9e2d 663f 6564 6a3f
00000030: 8f9f 2b3f 6f8f 3c3f a03f 843f 2f82 9e3f
00000040: 8ed1 8c3f 26f9 823f ce72 1a3f 6cfd 9e3f
00000050: 3f3d d03e 1adc 2c3f 39e9 523f cd74 6a3f
00000060: 5106 8d3f 6ebc 123f abb0 933f 3c66 923f
00000070: a2cd 4c3f baeb 6e3f 448c 613f ee2a b23f
0.9589847 1.1665152 0.80360126 1.1463332 0.63694954 0.9066145 0.8909936 0.90118617
0.7948483 0.8699533 0.89913356 0.9155944 0.6704034 0.7365636 1.0331917 1.2383479
1.1001451 1.0232284 0.6033143 1.2421088 0.40671727 0.6752335 0.8238712 0.91584474
1.1017553 0.5731877 1.153829 1.143745 0.8000127 0.9332844 0.88104653 1.3919351

bias f4 [32]
00000000: 2496 85bd 8a52 8dbe 9fea b13c c1b9 10bd
00000010: a7c1 3f3b c011 b0bd a428 1fbe a339 7fbd
00000020: 29bd 9c3d 22dd 183d 2822 db3e 7976 08be
00000030: d740 2e3e 54d4 a3bd faa6 663d bd9a c43c
00000040: 15eb dfbd e34f 2c3e e106 00be 2cf1 dd3d
00000050: 5197 9abe ea15 a43d 804a 5cbd ff02 43bd
00000060: f355 c4be f8fd 68bd c4b0 e3bd ae4c 0cbe
00000070: 2298 9dbe 34a5 ffbd 5a96 03bd eee6 c3ba
-0.06522778 -0.27602035 0.021718321 -0.0353334 0.0029259713 -0.085971355 -0.15542847 -0.062310826
0.07653267 0.037320264 0.42799497 -0.13326444 0.17016922 -0.07999483 0.056311585 0.023999566
-0.1093351 0.1682735 -0.12502624 0.108370155 -0.3019357 0.08011992 -0.053781986 -0.04761028
-0.38346824 -0.05688283 -0.111177 -0.13701126 -0.3078013 -0.12482682 -0.03212581 -0.0014946142

running_mean f4 [32]
00000000: f7c9 18bf 3c80 dcbd b7ad a0be 0a95 d1bd
00000010: a137 80bf 851d 07bf 61f4 0cbe 1b22 9b3e
00000020: cbe4 53bd 1ce6 493b 3591 f2bd a219 3d3e
00000030: a7d1 713f 31ce 4a3d a095 e73c 0ca7 efbe
00000040: 0a2e f63e 42e4 94be 9c23 0ebf 6633 9d3d
00000050: 6b9a 69be c687 253f b14f 533f 82d6 b1bd
00000060: 628d febd bd16 1b3e 2a71 d63d cf3d d5be
00000070: c3de 123e 4fb1 703f 25bb 9a3e 923b b53e
-0.59683174 -0.10766646 -0.31382534 -0.10233505 -1.0016977 -0.5277942 -0.13765098 0.30299458
-0.051731866 0.0030807322 -0.11844102 0.1846681 0.9446053 0.049513046 0.028269589 -0.46807134
0.48082 -0.29080397 -0.55523086 0.07675819 -0.22812812 0.646603 0.82543474 -0.08683492
-0.124293104 0.15145393 0.10470803 -0.4164872 0.1434279 0.9402055 0.30220905 0.3539701

running_var f4 [32]
00000000: de5c f440 7c5c 0840 7ee6 6540 3003 fd3f
00000010: 1eda 3b41 0304 9640 9a4c 8640 931a 0540
00000020: ec5d 4140 ef6b c03f 2f3b 9c40 f2ba a840
00000030: 9b1c 9940 14d6 8b40 841c 8e40 1ef9 8440
00000040: 07da a640 d878 8640 8302 1b40 acc3 bb40
00000050: a2d3 6040 400e 5a40 9773 d140 1f3a 743f
00000060: d4f1 a940 87d0 b140 021a 1c40 cb67 7240
00000070: 9efd 2d40 bf87 dd40 be5b 3840 c09c b73f
7.6363363 2.1306448 3.5921931 1.9766598 11.740751 4.6879897 4.196851 2.079747
3.0213575 1.5032939 4.8822246 5.2728205 4.784742 4.3698826 4.440981 4.15541
5.2141147 4.2022514 2.4220283 5.8676357 3.512917 3.4071198 6.54536 0.95401186
5.31077 5.556705 2.4390874 3.787585 2.7186046 6.9228206 2.8805995 1.4344711

weight f4 [32, 16]
00000000: 0f7d e93d 34cd cfbd e3cc 403d abe4 47bf
00000010: 5321 0bbf 3ce4 01be 55c0 30bf 71cc 80bf
00000020: c7fd d8bd fb28 713e d1e5 2f3f 499a 033f
00000030: 7c74 4a3e 9e7a 853f 99b2 423f 54fd d4bd
00000040: ea20 f7be e702 dd3f f47e 883f 3065 71bf
00000050: ef2f 21bf 1ab7 fe3d 95e9 5e3f 25be 24bd
00000060: 001e 60bf ce55 683f 8649 d43e 5174 40be
00000070: 3133 1a3f b858 883f 0892 623e ec36 40bf
00000080: adde 31be c774 6d3c 5d4d bdbe 878a 8a3f
00000090: a0e6 26be 8ae5 1cbe fab2 2ebe e9ad 03bf
000000a0: 069a 47bf 8915 2a3f 0d9d 48be ae0d 17bf
000000b0: 0a7b fbbd a910 8abf 0726 3e3f da2f 4dbf
000000c0: 47f4 173f 2798 2ebf 19ba 71bf 0bd4 803d
000000d0: 0d6d 20bf c2bf e6be 28f8 a6be ba18 e13e
000000e0: dca3 cb3d 3e17 ebbe f116 883f 61b6 c03e
000000f0: d885 803e dba1 a03e d0f2 09bf cb6e aa3e
00000100: 314d 0a3f 37a2 783f 2e5e 86bf 88d8 1dbc
00000110: b1a4 86bf e24b 1d3f e92d 02bf 0553 403f
00000120: d2c5 23be e4e2 983e bb8a 81bf 0f21 82bf
00000130: 25b3 173f e44c 2ec0 9af6 32be 098f 76bf
00000140: ede8 14bf db35 03bf 0480 9ebf 67a8 203f
00000150: 86a1 babf 7909 3abf e6c5 80bf 9420 983f
00000160: a9d7 1bbf b73b fb3e 61e5 34bf b656 653f
00000170: 80e5 fdbd cec3 4b3f a050 3dbe 13ab 643f
00000180: fd49 f93d a105 0c3e 1404 883f b565 03be
00000190: 72fa fcbc 7e54 763f 6165 15be affc 353f
000001a0: bd3c 90bf c6c6 663e eaca 12bf c9b9 a23f
000001b0: 9db6 36be b176 d03f ff2f b13e aa5f 9f3e
000001c0: 9943 943f 13c9 adbc fc1d 0e3f 216a 8ebe
000001d0: a0b2 263f b37f 9ebd e38a 36bf cc81 313d
000001e0: 399f 55bf 23f5 82bf 4185 57bf 1736 513d
000001f0: 7db6 953f 4ce8 33bf 8769 acbe eb80 8abe
00000200: eeac 733e c190 e33e ddac aa3f c250 273f
00000210: 453f c9be 1516 ecbe b8c5 f9be 5441 0a3f
00000220: 8906 4cbf 08cb d73e 17bd d1be 74b4 3bbf
00000230: efb6 7fbd d1c2 693f 70fc a0be f966 8a3f
00000240: a842 df3e af81 edbe 7959 0f3f 91cf 72be
00000250: 828b 913f 2e61 8abf cb59 54bf f006 163e
00000260: 4649 b8bf 14a7 16bf 3eb3 0fbf 46dc 89be
00000270: 01d7 b63e 50ff 2ebe 973a 9b3f 509c 683f
00000280: 3b87 be3f dfca 01bf eec5 34bf 25a7 c23e
00000290: 8f1d c0be 080f ba3f 8e29 72bd 2167 92be
000002a0: cb6f d83e 4f8c 07bf 6977 943d 3fb4 8a3f
000002b0: 7df3 a9bf 2665 00bf 9e20 2cbf fb5d 53be
000002c0: bf77 73bf 4c50 1bbf bcb8 b8be 8cfb 94bc
000002d0: fef3 b03e cdd9 593e ff31 10bf 4aa0 f9bd
000002e0: 0779 5a3f b6c1 22be 7de5 bb3f f114 19bd
000002f0: 1192 69bf ebde 4e3e ad33 a23e 5ff2 03be
00000300: f3c2 0240 6fc2 bebe 660a 1ebf d263 8d3f
00000310: 4af2 15be af80 d6be 8875 12be 2baf c3be
00000320: 9192 82bd c0b3 5c3f 75d7 81bf 46e6 e2bc
00000330: e16c 2bbf 2338 83bf 87eb 6fbe e2b0 b23f
00000340: 4b5b 863e 5587 5fbe eb61 163f 8e56 53bb
00000350: bc3f bc3e 52c3 4a3f e594 a6be c68a 853e
00000360: cc15 22bf 8dfa 1e3f b463 d33f d754 28bf
00000370: 8b29 393f aee6 043f 7050 8dbf a07c 4f3f
00000380: a6ff 41be 00ea 0f3f fcdf 73bf f796 0abf
00000390: 5bda 34bf 8571 8dbc 9973 893f 7328 4abf
000003a0: e31b e53e 734d 923e 1921 2ebd 4f95 0bbf
000003b0: 025c 653e e855 1ebf 3255 e4be b938 88bf
000003c0: 1da3 3c3f 7af8 0dbe da9a e83e 468f b53d
000003d0: 5edc 2ebf a90a 7abe 39f9 cbbe 5199 643e
000003e0: fa27 4f3f 0e42 a7bf 593e f7bd aa91 8c3f
000003f0: 63fb 9dbf 52e6 e6be 7d95 66bf cf37 31bf
0.11400806 -0.10146561 0.047070395 -0.78083295 -0.54347724 -0.12684721 -0.69043475 -1.006239
-0.10595279 0.23550789 0.68710047 0.51407295 0.19770998 1.0428045 0.7605377 -0.10399881
-0.482673 1.7266511 1.0663743 -0.94295025 -0.62963766 0.124372676 0.8707517 -0.0402204
-0.87545776 0.9075593 0.41462344 -0.18794371 0.6023436 1.0652075 0.22126019 -0.75083804
-0.173701 0.014493174 -0.36973086 1.0823525 -0.16298914 -0.15321937 -0.17060462 -0.5143724
-0.77969396 0.6643911 -0.1959116 -0.5900525 -0.12279327 -1.0786334 0.74276775 -0.8015114
0.5935711 -0.68200916 -0.9442459 0.06290444 -0.626664 -0.45068175 -0.32611203 0.43964177
0.09943363 -0.4591617 1.0632001 0.37639144 0.25102115 0.31373486 -0.5388613 0.33287653
0.54024035 0.9712252 -1.0497491 -0.009634145 -1.051901 0.61443913 -0.50851303 0.7512668
-0.15993431 0.29860604 -1.0120462 -1.0166339 0.5925773 -2.723443 -0.17476884 -0.96312004
-0.58167917 -0.5125405 -1.2382817 0.6275696 -1.4580543 -0.72670704 -1.0060394 1.1884942
-0.60875946 0.49068996 -0.70662504 0.89585435 -0.12397289 0.7959565 -0.18487787 0.8932354
0.12172315 0.13674022 1.0626245 -0.12831767 -0.03088114 0.96222675 -0.14589454 0.7108869
-1.1268536 0.22536764 -0.5734087 1.2712947 -0.17843099 1.6286222 0.3460693 0.31127673
1.1583129 -0.021214044 0.555145 -0.27815345 0.6511631 -0.077392004 -0.71305674 0.043336675
-0.8344608 -1.023106 -0.84187704 0.051076975 1.1696316 -0.7027633 -0.3367426 -0.27051482
0.23796436 0.44446376 1.3334004 0.653576 -0.39306083 -0.46110597 -0.4878366 0.5400593
-0.7969747 0.42147088 -0.40964577 -0.73322225 -0.06243032 0.9131289 -0.31442595 1.0812675
0.43605542 -0.46388003 0.559959 -0.23711993 1.13707 -1.0810907 -0.82949513 0.14651084
-1.4397361 -0.5884869 -0.56132877 -0.26925868 0.3571091 -0.17089581 1.2127255 0.90863514
1.4885019 -0.5070018 -0.70614517 0.38018146 -0.3752255 1.4535837 -0.05912166 -0.28594306
0.4227279 -0.5294847 0.07249338 1.0836257 -1.3277432 -0.5015434 -0.6723727 -0.2064132
-0.95104593 -0.606694 -0.3607844 -0.018186353 0.3456115 0.2127449 -0.5632629 -0.12188776
0.85340923 -0.15894207 1.4679409 -0.037373487 -0.91238505 0.20202224 0.3168005 -0.12885426
2.0431488 -0.37257716 -0.61734617 1.1046088 -0.14643207 -0.41895053 -0.14302647 -0.3821958
-0.063756116 0.86211777 -1.0143877 -0.027697694 -0.6696301 -1.0251507 -0.2342969 1.396023
0.26241526 -0.21828969 0.5874316 -0.0032247636 0.36767375 0.79204285 -0.32535473 0.26082438
-0.6331451 0.6210106 1.6514802 -0.65754455 0.72329015 0.5191449 -1.1040173 0.8104954
-0.18945178 0.5621643 -0.9526365 -0.54136604 -0.70645684 -0.017266044 1.0738403 -0.7896797
0.44747838 0.28574714 -0.042512033 -0.545247 0.2239838 -0.6184983 -0.4459625 -1.064231
0.7368639 -0.13864318 0.45430642 0.08865218 -0.68305004 -0.24418129 -0.3983858 0.2232411
0.80920374 -1.3067033 -0.12072439 1.0981953 -1.2342342 -0.45097595 -0.9007185 -0.6922578

weight f4 [32]
00000000: d2d0 813f 6a4b 943f 6a36 713f db5a 833f
00000010: c084 853f 4ff9 8c3f c630 a23f 0588 863f
00000020: ae1f 9e3f d7f1 693f da82 8c3f 6abb 813f
00000030: ad46 8a3f aa0e 583f 569e 4d3f 9911 643f
00000040: da1e 8b3f 31c2 933f 25a9 6b3f d4e1 5b3f
00000050: 5ca9 8e3f 8662 813f 62cb 823f fbd6 653f
00000060: 984b a03f 687f 413f 5041 4f3f 383c 4f3f
00000070: aebb 9a3f 0363 843f 0033 813f 23db 8a3f
1.0141852 1.1585515 0.94223654 1.0262102 1.0431137 1.1013583 1.2671134 1.051026
1.2353418 0.91384643 1.0977433 1.0135319 1.0802819 0.84397376 0.80319726 0.8908935
1.086879 1.1543638 0.9205497 0.8589146 1.1145434 1.0108192 1.0218318 0.8978116
1.2523069 0.7558503 0.80959034 0.8095126 1.2088525 1.0342716 1.0093689 1.0848125

bias f4 [32]
00000000: d5ac e63d f214 e53c f27f 723d 36fa c53b
00000010: fcaa 7bbd d0f8 98bd 1c63 9cbe 8cd5 9f3d
00000020: 451b 42bd 7326 0cbe 2d66 383e 1289 f13c
00000030: fe63 c43d e74f ae3d 2323 833e 3057 94be
00000040: d574 3e3d a2bc c33d 15bb b6bc 1349 133e
00000050: 1447 733d 3634 063e 1ce5 8d3e 4919 863d
00000060: 2216 1a3e 4c60 7b3c 8768 663d 059b 9d3d
00000070: 79bb c53d 3893 89be 6c7f 61be 2a35 efbd
0.11263434 0.027964089 0.05920405 0.0060417904 -0.06144236 -0.07469332 -0.30544364 0.07804403
-0.047389288 -0.13686542 0.18007727 0.029484306 0.095893845 0.08511334 0.25612745 -0.2897277
0.04649814 0.09557463 -0.022306005 0.14383344 0.059393957 0.13105854 0.2771386 0.065477915
0.15047505 0.015342783 0.05625203 0.07695583 0.09654898 -0.26870131 -0.22021264 -0.11680062

running_mean f4 [32]
00000000: a8d9 a93e efaf 28bf 5b65 2c3e c3f1 863e
00000010: 7a68 973d dc42 f7be 1020 67bf 64f4 283e
00000020: ab70 42bf 4532 f03a 9563 743e d292 083f
00000030: aeac 34bd 32cc 9cbd 37ca 863e 7518 a03e
00000040: c496 2e3c d8f9 1b3f 5a67 3f3e 434f 0abe
00000050: 8dda 863e 76c2 d03e 5811 5f3e d5f5 053d
00000060: d826 323c b97c 623e 8247 5abf ce68 c1be
00000070: 138c b73e 1ccd 14bf 48ae 49bd 73e7 1abf
0.3317387 -0.65893453 0.16835539 0.26356325 0.07392974 -0.48293197 -0.902833 0.16499478
-0.7595317 0.0018325528 0.23866113 0.5334903 -0.044109993 -0.07656135 0.26326153 0.3126866
0.0106560625 0.60928106 0.18691769 -0.13506798 0.26338616 0.40773362 0.2178396 0.032705147
0.010873519 0.2211789 -0.8526536 -0.37775272 0.35849056 -0.5812547 -0.049238473 -0.60509413

running_var f4 [32]
00000000: 7688 0e40 1cf7 7740 ffc8 1340 dd2f b53f
00000010: 4689 4640 3119 5c40 0f3d 3f40 7c2f b33f
00000020: aa77 ac40 37d1 1d40 1c84 b83f 9e4b 0240
00000030: d947 4740 e507 f440 a611 6540 d007 4440
00000040: 381d 3640 6793 e33f 4bd0 7440 e684 c340
00000050: 04ff 6140 126b 223f d1a6 9240 2b38 c23f
00000060: 8a02 ce3f 7db9 9440 a845 2a40 3747 db3f
00000070: 1558 cb40 3b2d 5c40 d0b2 a63f d898 5540
2.227079 3.8744574 2.3091428 1.4155232 3.1021285 3.4390376 2.9881017 1.3998866
5.3896074 2.4658945 1.4415317 2.0358653 3.1137602 7.6259637 3.5792022 3.0629768
2.8455334 1.7779359 3.8252132 6.109973 3.53119 0.63444626 4.5828633 1.5173391
1.6094525 4.6476426 2.6605015 1.7131108 6.354502 3.4402606 1.3023319 3.3374538

weight f4 [32, 16]
00000000: 7384 73be 6371 01be 8b92 34bf d2e4 a4bf
00000010: 03ef 02bf d10e 353f e312 233e 277f cfbf
00000020: 9388 eabb bd65 67be 6f62 10bd e300 30bf
00000030: 0301 63bf 8b4a 22bf 1e65 28bf a976 30bf
00000040: c444 a2be d949 0a3f ad6f f0be 5469 cebe
00000050: 468e 943f a8c5 b2be 5438 943e 740f 1c3d
00000060: 3b71 86bf 6d7c bebe a913 a3bf ec6b 6dbf
00000070: 88e7 5dbf fe1d 273f c773 e4bd 5572 74bf
00000080: 03f5 78bf f82e 9fbf f0e0 0a3d 8651 3bbf
00000090: a9c6 e73f 51d2 4d3d e484 183e ffbb c8be
000000a0: daf5 6b3f 43fe 20bf 53a8 9dbe 15fc 713f
000000b0: cb0a 9c3e 72d8 cbbe 026d 44bf 1288 803e
000000c0: d1d6 b13e 44c9 31bb 144d d6be ddff 5ebd
000000d0: c368 603f b4e5 20bf daba e13e ea5c 0b3f
000000e0: 64d4 ca3f b869 bcbf ac89 103f 4aa9 5a3f
000000f0: f53d b0be 56c1 b0be 0c1c 07bf 4880 1fbe
00000100: 08bd 783d cc07 82be e205 e2bf 8377 c93e
00000110: 9613 0a3e 7216 fa3e a9cd 163f 9afe 9a3e
00000120: 6f2c 3fbf 7990 633f acad e1be 7fb5 f8bd
00000130: 2f77 243f d19f 473f 1b95 073f 525a 74bf
00000140: aae4 51be 1303 523e e99e 993f 5f59 383e
00000150: b3c0 953e 6948 bebe 41bc 6dbf 9be6 083f
00000160: f7a5 813c bf38 01bf 6e5f 1dbf cacb df3e
00000170: 1581 c1bf c206 d4be 77ef 5e3d d26a 3d3f
00000180: 9e9a 7f3f db15 7bbf 4181 e43d 7c22 42be
00000190: 08e1 663c 9e89 17bf 8ccb 703d ff20 f9be
000001a0: 26a2 60be 719a 813f cbf0 7c3e 077a 61bd
000001b0: b687 ba3d da33 473f 0641 29bf 4bbe dcbe
000001c0: 6962 b53e e7a4 a8be ff87 93bf 0041 cdbd
000001d0: 2392 5abe 0757 493f dcea b7be c459 a53e
000001e0: 6e97 593e a59a f3bf e0d3 33bf cae7 cebe
000001f0: bd5a 8d3f b0eb 46bf 0004 1cbe 0a93 733e
00000200: ca01 643e e409 25bf 09ed a7bf 2625 173f
00000210: b96e 3ebe 2b49 af3e f098 dd3f c4bd 553e
00000220: 751d 10bf 592c 7c3f 1ca8 7d3d 5ddf 263e
00000230: 80fe 5c3e a58c 6dbd 3835 be3e d5d4 abbe
00000240: 19d9 8a3c 7865 523e 4e46 183e c8d2 5d3e
00000250: fbfb 703e 7d60 bfbe b972 57bf 5a2c c83e
00000260: 7a6a 97be 6e39 7bbf 949b 4bbe f50e 87be
00000270: b9c1 84be e313 e33e 51c2 c93e c0d9 e0be
00000280: b821 853f a0dd 4b3f 7deb 8dbf f329 b5be
00000290: 7fab 603e bd73 73be 4154 d7be 5b71 0c3e
000002a0: 8348 25bf 8480 febd 6054 1dbf bbc1 923d
000002b0: 1edd d4bf 9a86 9dbf 813d 753e e0c8 a7be
000002c0: ac35 17bf 2d3e 59bf f291 813f 154d 4f3e
000002d0: 49a1 18bf ddca cb3e ea72 7dbf e5c0 babe
000002e0: f7f1 adbf 9617 38bf ed30 fa3e c884 2b3e
000002f0: 3894 163e 14b6 343f e5b5 9abd 5925 d83e
00000300: ac99 1f3f 0d13 91bd da30 cd3c 25e0 e2be
00000310: b666 16bf e8cd 6bbf 885b 273e 0a60 01bf
00000320: 4aaf e43c f1b3 93be 3ca4 cf3f 53d7 e53d
00000330: 330c 74bf 14c6 983f 845e c4be 6f86 9bbc
00000340: cdff 573c c2d3 92be f0b3 c43e 1fdd 62be
00000350: 5f2b dfbe 8cc6 bebd 121a 083f e39b 23be
00000360: 4270 4e3f 44d3 793e 1ed5 8f3f 187b e3be
00000370: 959e 693f 7214 26bf 9ff4 a7bf 170f 7dbe
00000380: b41e 063f d623 e9be dab7 debe 7264 0b3c
00000390: 9de0 5abf bd24 e0be 3410 6ebe f339 433f
000003a0: f448 eebe 5301 933f 970e edbd 7878 bd3d
000003b0: 175d 09bf 25e2 79be e4d4 6d3e bf01 42bf
000003c0: ddb5 d03e cbd1 2d3e 4b3b 02bf 85e8 ca3f
000003d0: d3bb c93e b6ed a1be bfbb adbf 9568 8d3f
000003e0: c850 4b3e 74e2 e23e 65b1 d5bd 3fe6 4b3f
000003f0: b2f1 ccbf dc13 02c0 cabf a4bf 7a46 ce3e
-0.23780994 -0.1264091 -0.70536107 -1.288233 -0.5114595 0.70725733 0.15925173 -1.6210679
-0.007157394 -0.22597404 -0.035250124 -0.68751353 -0.8867342 -0.63394994 -0.6577929 -0.6893106
-0.3169309 0.5401893 -0.46960202 -0.40314734 1.1605918 -0.34916425 0.28949225 0.038100675
-1.0503305 -0.37204304 -1.2740375 -0.927428 -0.86681414 0.6528014 -0.11154895 -0.95486957
-0.9724886 -1.2436209 0.033905923 -0.7317127 1.8107501 0.0502494 0.14894444 -0.3920593
0.92172015 -0.6288797 -0.30792484 0.9452527 0.30476984 -0.39813572 -0.7672883 0.25103813
0.34734204 -0.002712802 -0.4185568 -0.05444323 0.87659854 -0.628505 0.4408787 0.5443865
1.5846066 -1.4719763 0.5646007 0.85414565 -0.3442227 -0.34522504 -0.5277717 -0.15576279
0.06072715 -0.25396574 -1.7658045 0.39348993 0.13484034 0.4884525 0.5890756 0.3027237
-0.74677175 0.8889232 -0.44077814 -0.12143993 0.6424436 0.77978235 0.5296189 -0.9545032
-0.20497385 0.20508985 1.200162 0.18002842 0.2924858 -0.3716462 -0.9286538 0.53476876
0.015826209 -0.5047721 -0.6147374 0.43710166 -1.5117518 -0.41411406 0.05442759 0.7399112
0.998453 -0.98080224 0.11157466 -0.18958467 0.014091738 -0.5919436 0.058787867 -0.48657987
-0.21936855 1.0125257 0.2470123 -0.055048015 0.09107916 0.77813494 -0.6611484 -0.43113932
0.35426643 -0.3293831 -1.1525878 -0.100221634 -0.21344809 0.7864842 -0.3592137 0.32295048
0.21249172 -1.9031569 -0.7024517 -0.40411216 1.1043316 -0.7770338 -0.15235901 0.2378656
0.22266307 -0.64468217 -1.3119212 0.5904106 -0.18596925 0.3423551 1.7312298 0.20873171
-0.5629495 0.9850517 0.0619279 0.16296144 0.21581459 -0.057995457 0.37149978 -0.33560815
0.016949223 0.2054652 0.14870569 0.21662438 0.23533623 -0.37378302 -0.8415943 0.39096338
-0.29573423 -0.98134506 -0.19883567 -0.263786 -0.2592905 0.4435111 0.39406064 -0.4391613
1.0400915 0.7963505 -1.108749 -0.35383567 0.2194042 -0.2377462 -0.42056468 0.13715117
-0.6456377 -0.12426856 -0.6145687 0.071658574 -1.662998 -1.2306702 0.23949243 -0.32770443
-0.5906627 -0.848605 1.0122664 0.20244248 -0.596211 0.3980321 -0.9900347 -0.36475292
-1.3589467 -0.7191099 0.48865452 0.16749871 0.14704978 0.7059033 -0.07554225 0.42215994
0.6234386 -0.07083712 0.025047708 -0.44311634 -0.58750474 -0.92111063 0.1634351 -0.5053717
0.027915616 -0.28848222 1.6221995 0.112227105 -0.95331115 1.1935449 -0.3835336 -0.018985001
0.013183546 -0.28677183 0.3841853 -0.22154664 -0.43587777 -0.093152136 0.5316478 -0.15977435
0.8064004 0.24396998 1.1236913 -0.4442985 0.912576 -0.6487495 -1.3121527 -0.24712788
0.523906 -0.45535153 -0.43499643 0.008507835 -0.8549898 -0.4377803 -0.23248369 0.762603
-0.46540034 1.1484779 -0.115750484 0.09251493 -0.5365767 -0.24402674 0.23225743 -0.75783914
0.4076375 0.16974561 -0.50871724 1.5852209 0.3940111 -0.31626672 -1.357292 1.1047541
0.19855034 0.44313395 -0.10434226 0.796482 -1.601126 -2.0324621 -1.2871029 0.40288144

weight f4 [32]
00000000: 0000 803f 0000 803f 0000 803f 0000 803f
00000010: 0000 803f 0000 803f 0000 803f 0000 803f
00000020: 37ec b53f 11b2 823f 3e3d 513f 9788 753f
00000030: bee4 533f a6e9 943f c716 503f 0e0f 823f
00000040: 0000 803f 0000 803f 0000 803f 0000 803f
00000050: 0000 803f 0000 803f 0000 803f 0000 803f
00000060: 3b15 833f ea24 853f 0098 973f 9af4 9d3f
00000070: 6cf0 553f 9428 9d3f fc6a a13f 77f9 783f
1.0 1.0 1.0 1.0 1.0 1.0 1.0 1.0
1.4212712 1.0210592 0.81734073 0.95911545 0.8277091 1.1633804 0.81284755 1.0160844
1.0 1.0 1.0 1.0 1.0 1.0 1.0 1.0
1.0240854 1.040189 1.1843262 1.2340271 0.8356998 1.2278008 1.2610774 0.97255653

bias f4 [32]
00000000: 0000 0000 0000 0000 0000 0000 0000 0000
00000010: 0000 0000 0000 0000 0000 0000 0000 0000
00000020: 9ad4 16be b818 e2be cd82 c23e 9c10 053e
00000030: a4c4 0e3e c55e b5bd 8c8b 1f3e 9c2a 8fbd
00000040: 0000 0000 0000 0000 0000 0000 0000 0000
00000050: 0000 0000 0000 0000 0000 0000 0000 0000
00000060: abde d03e d76b a6bc 4723 aebe 6626 ba3c
00000070: ecb0 91bd b2ca a1bd 95c5 9dbe 4c25 3c3d
0.0 0.0 0.0 0.0 0.0 0.0 0.0 0.0
-0.14729539 -0.44159484 0.37990418 0.12994617 0.139422 -0.088559665 0.15580577 -0.06990549
0.0 0.0 0.0 0.0 0.0 0.0 0.0 0.0
0.40794882 -0.020315094 -0.3401129 0.022723388 -0.07113823 -0.07899989 -0.30814806 0.045934007

running_mean f4 [32]
00000000: 13dc 843e f657 ddbd 7c6a 393e 0666 0c3c
00000010: bbf3 45be 70c5 343e 19e2 083e 4acb 973d
00000020: 7a8e f6be 839b ed3e 1c13 a93d 23b8 4f3f
00000030: 90a9 c33e d2f6 00be 4026 023e 2b96 0e3e
00000040: c73c 38bf a8e2 193e 93be 88be bd22 fe3d
00000050: d7c4 ef3e 03c6 5fbe 5957 af3e 0e88 c7bd
00000060: fe94 193f 461b 81bd 2d5d 233f df82 bf3e
00000070: 06ce 4cbe 3c51 12bf 791c 8dbf b434 14bf
0.25949153 -0.10807793 0.18107027 0.008569246 -0.19331257 0.17653441 0.133675 0.07411821
-0.48155576 0.4640771 0.08255598 0.81140345 0.38215303 -0.12594154 0.12709904 0.13924472
-0.7196774 0.15027869 -0.26707897 0.124089696 0.46829864 -0.21852879 0.34246328 -0.09742747
0.5999297 -0.0630403 0.6381405 0.37404534 -0.20000467 -0.57155204 -1.1024314 -0.5789292

running_var f4 [32]
00000000: 4b3a 3940 0d4f 9640 960d 5340 7dbc 2940
00000010: 6eaa ae3f 89d6 6540 590b a93f 24b4 6d3f
00000020: fb38 1240 190c e93f c5b1 c440 c6d9 8940
00000030: 6189 1740 1dd9 8040 9a4e bd3f 835d 1b41
00000040: 22bd c440 1dc1 963f 375f c43f e65b 1b40
00000050: 453a 5940 9546 e13f 3e04 f73f 59f0 b53f
00000060: 02f4 1c41 1bf0 8140 07ec aa3f 0d6e cf3f
00000070: 221f fb40 8592 1740 cbad e340 103e 4440
2.894183 4.6971498 3.2977042 2.6521294 1.3645761 3.5912192 1.3206588 0.92853
2.2847278 1.8206817 6.1467004 4.3078337 2.36776 4.026503 1.4789612 9.71033
6.1480875 1.1777683 1.5341557 2.427484 3.3941815 1.7599665 1.929817 1.4213973
9.809572 4.0605597 1.335328 1.620546 7.8475504 2.3683178 7.114965 3.066288

weight f4 [32]
00000000: 5b56 8b3f c9b1 873f 3e03 ae3f 4469 813f
00000010: 6dab 233f 816e 5d3f 1fca 463f 04d4 743f
00000020: e158 883f 3f8c 4a3f 9607 873f e7f4 9e3f
00000030: cf00 863f f913 8d3f 785e 9e3f 8429 883f
00000040: db8e 9e3f db3f 8c3f 9aa9 4b3f 4eeb 943f
00000050: 2397 4c3f 843c 283f e80f 893f 2510 7f3f
00000060: 9663 a83f b0e7 843f fdd3 4e3f 9dcc 6d3f
00000070: 0b5f a53f a26e a73f 988f 993f f839 a43f
1.0885729 1.0601131 1.359474 1.011025 0.6393345 0.8649674 0.7765216 0.9563601
1.0652124 0.7912025 1.054919 1.2418488 1.0468997 1.102172 1.237258 1.063767
1.2387346 1.0956987 0.79555666 1.1634309 0.79918116 0.6571734 1.0707979 0.9963401
1.3155391 1.0383205 0.8079222 0.9289034 1.291963 1.3080637 1.1996946 1.2830191

bias f4 [32]
00000000: bf07 a23e e0a1 0c3c 54f6 7a3d 8989 89be
00000010: d25d 36be 25fb b93e 0428 2ebe 8008 0bbc
00000020: cdbf e9be 6adf cdbd 57bb c3bd 5b14 453c
00000030: 3652 023e 8aaf 323e da7b 483e c2c2 b0bd
00000040: e1f1 6f3e 86f1 123e e87f f13e e498 1bbe
00000050: eefc 94be cd8d 843d 5400 26be ae71 d63c
00000060: 18cb ba3d ef99 9ebe 7069 c93d c233 b73e
00000070: b508 fcbc fcd9 fcbc cf60 543e 4018 30bc
0.31646535 0.008583516 0.061270073 -0.26862743 -0.17809227 0.3632442 -0.17007452 -0.008485913
-0.45654145 -0.100523785 -0.095572166 0.012028779 0.12726673 0.17449775 0.19578496 -0.08630897
0.23432113 0.14349946 0.47167897 -0.15195042 -0.2909922 0.06472359 -0.16211063 0.026177254
0.09120768 -0.30976817 0.09834564 0.35781676 -0.03076587 -0.030865662 0.20740055 -0.010747969

running_mean f4 [32]
00000000: 26fe c33e df09 7cbb ebc0 953d ace9 573e
00000010: 7e1a 6a3e acbe b33e 74bf bd3c 5b05 063e
00000020: 543e adbe 6218 103d e4f7 70be d3c0 18bc
00000030: 66b6 69be 7b94 cabd 85dd 6dbe ad6d c93d
00000040: 506a cbbe 081b 46be 0457 52be 694f 91bb
00000050: 24f6 783d bb60 38be 2f23 a23e 3ff3 36bd
00000060: 3ca3 593d 9e25 b73d aa4a 19be 1b19 21be
00000070: 255b 22bd e2e3 0abe 6368 443e 6b1f e0be
0.38279837 -0.0038458032 0.07312187 0.21085232 0.22861668 0.3510641 0.023162581 0.1308798
-0.33836615 0.035179503 -0.23532063 -0.009323317 -0.22823486 -0.09891602 -0.23229034 0.09835372
-0.39729548 -0.19346249 -0.20541006 -0.0044345153 0.060781613 -0.1800565 0.31667468 -0.04466557
0.053134188 0.08942722 -0.14969888 -0.15732233 -0.039637703 -0.13563493 0.19180445 -0.4377397

running_var f4 [32]
00000000: fed3 8e3e 4a4b af3d 6bca cf3e 83b9 8e3e
00000010: 4b82 973e 8c69 483e 739b b13d 0159 793f
00000020: 6430 de3e 9ca0 2c3e fb70 de3e 2cc6 0a3e
00000030: 863e 3f3e a8ba a03e 3779 c13e 81a8 103f
00000040: e783 fc3e 9f17 1040 7020 893e a5c2 b53e
00000050: 2ab9 cd3e 453b c03e 4751 783f c992 523f
00000060: 904c 163f dcf9 b83e 2774 553e cbf1 c73f
00000070: 23db 833e 0cf6 043e 051a 653f b7b0 143f
0.27896112 0.08559282 0.4058412 0.2787591 0.29591593 0.19571513 0.08672228 0.97401434
0.43396294 0.16858143 0.43445572 0.13552159 0.18676195 0.31392407 0.37787792 0.56507117
0.49319384 2.2514417 0.2678256 0.35500064 0.4018033 0.3754522 0.9699902 0.82255226
0.58710575 0.36128128 0.2084509 1.5620664 0.25753126 0.12984484 0.8949283 0.58082145

weight f4 [32]
00000000: f256 9e3f 555a 6f3f 1933 ab3f 24ee 363f
00000010: 077a 3e3f 1705 483f 4385 7f3f 2d9e 763f
00000020: 39a6 4b3f c2a8 723f 7a9f 2f3f c36d 693f
00000030: 672b a13f 82a9 5d3f 7b3c 883f 31e6 783f
00000040: 7189 9b3f e625 873f 55ff 1e3f 3f64 1f3f
00000050: f5a0 3e3f f5cd 5c3f b041 883f 0097 5a3f
00000060: aa61 473f a325 763f 6f4a 243f d32f 943f
00000070: 2ad7 8b3f 9686 3c3f 60cb 8d3f 7207 5e3f
1.2370284 0.9349721 1.3374969 0.71457124 0.7440495 0.78132766 0.99812716 0.9633511
0.7955051 0.94788754 0.68602717 0.9118311 1.259137 0.86586773 1.0643457 0.97226244
1.2151319 1.0558441 0.62108356 0.6226234 0.7446435 0.86251765 1.0645046 0.8538666
0.778834 0.9615118 0.64176077 1.1577095 1.0925038 0.7364286 1.107769 0.8673011

bias f4 [32]
00000000: b3e2 183e bccc 05bc 94de 213e 40b4 893d
00000010: 4062 94be eaad 973e b335 15be ac0d 79bd
00000020: 4192 9fbd e4f7 dc3e 2a28 b3bd b4cd bf3d
00000030: cc87 423e f8e5 4d3d f58a 52bd fc3c 013e
00000040: 72a0 3e3e 17a9 38be 284d fe3e cd3a 48be
00000050: bac1 94be a1fd 80bd 0baf 07bd 310c efbb
00000060: a6ee c8bd b7b4 3d3e c6a1 8ebe 1f79 90bd
00000070: 3199 7c3e 4c98 2c3d 0954 4a3e c101 1fbd
0.14930229 -0.008166488 0.15807563 0.06723833 -0.2898121 0.29624873 -0.14571266 -0.060804054
-0.077915676 0.43157876 -0.08747895 0.09365407 0.18997115 0.050268143 -0.05140205 0.1262092
0.18615893 -0.18033253 0.4966824 -0.1955368 -0.29054052 -0.06298376 -0.03312592 -0.0072951545
-0.098111436 0.18525968 -0.27857798 -0.07054352 0.24667813 0.04213743 0.1975862 -0.038820032

running_mean f4 [32]
00000000: c57b 82bf 3357 9bbe 9b22 523e 81e0 a13e
00000010: ff08 983d 5e03 32bf 0760 2dbf 1606 4bbe
00000020: 1415 d23e 9a95 a53e 8ac6 193f 1f18 c0be
00000030: 7f78 613f aaf8 a4bd 626a dfbd afc3 debc
00000040: bc89 88bb fd3c 1d3f dba0 c2bd 8fe9 493f
00000050: 91e3 4bbe d370 b23e d06f 9c3d b716 82be
00000060: 007e 0dbf a628 193e 2d55 823d 2afd 7dbf
00000070: 8ece 113e 30a4 693f a525 213f 1054 993e
-1.0194021 -0.30339965 0.20521013 0.31616595 0.07423591 -0.6953639 -0.6772465 -0.1982654
0.41031706 0.323407 0.6006857 -0.37518403 0.8807449 -0.080552414 -0.10908963 -0.027192919
-0.00416681 0.61421186 -0.09503337 0.7887201 -0.19911028 0.34851703 0.07638514 -0.25407955
-0.55270386 0.14956912 0.06363902 -0.9921442 0.1423895 0.91266155 0.62948066 0.29946947

running_var f4 [32]
00000000: 6b51 7140 d698 ef3f e596 5240 d288 ac3f
00000010: 2f68 b140 5c1c a040 f9cb 5340 dff1 3440
00000020: e926 3640 3481 6040 6386 4440 5f53 1740
00000030: 19b8 af40 6538 9d40 de01 f540 761d df3f
00000040: 0ff3 6940 c1f6 8640 5ada 3b40 d79a 3140
00000050: f23c bf40 1d2b 3740 b665 9e40 303e c23f
00000060: d2c9 9b40 34e2 db40 f358 d53f 522c ba40
00000070: 5837 1740 f05a 8840 8122 0240 c78d fa3f
3.7705944 1.8718517 3.2904599 1.3479254 5.5439677 5.003462 3.3093245 2.8272626
2.846125 3.507886 3.0707023 2.3644636 5.491223 4.913134 7.656478 1.7430866
3.6554601 4.2176213 2.9352021 2.7750757 5.9761896 2.8620064 4.949916 1.5175228
4.8683863 6.8713627 1.666777 5.81791 2.362753 4.261101 2.033356 1.9574517
